model_complete.pth (torch, 253685 bytes, 10 tensors)

weight f4 [6, 3, 5, 5]
00000000: 5721 03bd 6b8f 94bd 5ee1 08bd ad9d f9bd
00000010: 4276 0dbe 66fc c2bd c253 843d a075 1bbe
00000020: 4128 18be fe25 50bd c9d4 683d 39bb 5b3d
00000030: 4a17 24be 4ea1 0bbe c0ae 04be 6e03 11be
00000040: 80b3 cdbd 810c 19be 175e 90bb a262 a9bd
00000050: 6cdc 213d 0c81 bebc 86e9 d7bb 0c97 413d
00000060: b446 b13c d5c3 c0bd e10a 923d 0c19 b8bd
00000070: b501 713d 9e34 5bbd 96a9 ac3d 6fa5 fcbd
00000080: cf38 00be 8110 383d 6f4c c63d eaf2 5c3c
00000090: 2957 aebc 6abb 85bd fae2 703d 75e3 c33d
000000a0: 985b 5c3d 3ec2 e53c cd63 b03d 2776 083d
000000b0: 0d17 6c3d 0334 773d 4bb7 aebd 82a7 9cbd
000000c0: d247 c4bd 2bee a73c a4db 8b3d 1b20 493d
000000d0: 6f66 d13c 82f4 523d 281c 98bd dccb 6a3d
000000e0: 736d c93c 049b b43d 228a bc3b 0070 a4bd
000000f0: 6689 83bc b47a d33d 2612 e4bc a81c ad3d
00000100: 96d9 6fbd 8ceb 0c3e baea 89bc b772 c9bc
00000110: c22c e53c 776c fb3d 2d2f 0ebd 1fef 803c
00000120: 5531 28bc a41a 3c3c 4727 df3d 4c59 583d
00000130: 7085 a73d 12fb 4ebc 98e2 edbd 6d84 b83d
00000140: 143d a4bd 57dc 693c 25aa 02be 6fef 17be
00000150: 7290 26bd 2547 f9bd 7fed 20be 3641 f6bd
00000160: 3eba 2bbd a246 33bd b173 c3bd dec1 b0bc
00000170: 27ba 0bbe ce71 cdbd 2c6b ffbd b9e5 adbd
00000180: bbd0 f0bc 1036 18be a404 c0bd 5603 3bbd
00000190: 4241 6c3d 139f 02be 5935 b6bc f3de 953d
000001a0: d735 dd3d b5e0 9cbd 671a 16bd e5f9 6a3b
000001b0: 0846 6b3c 09c2 343d 0cce 68bd da64 673d
000001c0: 6f4e 4f3d ee04 d5bd 1ae3 01be f6d0 07be
000001d0: eb38 fbbd 8d32 f8bd 77a0 93bd 1b08 613d
000001e0: 3bb4 803d 53e6 80bd dac3 1ebe 58eb cfbb
000001f0: ac6b 4d3c 1b8c 3a3d 28ee ab3d a074 f13d
00000200: f09d 51bc 078c 7f3d c1bb 42bd 6bcd d2bd
00000210: b398 5ebd 4c76 7a3d cbcc 653d 24a5 afbd
00000220: bf87 fb3a 4897 83bd 4bfc 93b9 adba e3bd
00000230: a0e0 a1bd ba74 fb3c 8afd e03b e450 99ba
00000240: 1a26 d3bc 4bcd 1abd 4cd6 82bd ba37 6bbd
00000250: 1be9 7e3d 39dd 93bc 90f1 0ebe 38be ce3c
00000260: 67bb 20be 428c 03be 8572 9a3d 236e b93b
00000270: 0613 dfbd c23f b73b 9268 2fbd cf8a 3bbd
00000280: e6b1 603d f19c 33bd 9329 41ba 2c59 2b3d
00000290: 3cb4 16be 73bc 20be 60a1 d8bd aa60 97bd
000002a0: 3315 98bd 35bc 12bd c5b9 063d 4890 99bd
000002b0: ace2 11be 717c a13c e10c a9bd 0ccf dbbd
000002c0: 9084 f9bd db91 aebd a4ed 32bd 5364 41bd
000002d0: 7840 243d 58ef e5ba f67e 563d 29f2 a93b
000002e0: 1a73 55bd a33a 38bc c880 04be 24bd 423d
000002f0: 1f25 06bd 374c 16be d193 10be 2b04 10be
00000300: 1988 643d a995 e8bc 22f1 2c3d 07ce d7bd
00000310: b1ea 9abd 339f 13be be4c c53b fad9 873d
00000320: 594e a73d 3992 083c 85a1 653d 0868 40ba
00000330: bf9c 19bd 7d68 42bd 1692 46bd 0bec d03d
00000340: 9514 893d 175e 3b3c 138e e23c 4e5c 9dbd
00000350: d479 ffbd c7ac 7abd fda9 bbbd 6e69 2dbb
00000360: 57f7 2ebc db10 1bbd 832a c0bc 5a13 85bd
00000370: 41f6 00be be70 c23c be14 e03c df47 d7bd
00000380: 12c6 87bd 00bc f3bd de15 a93c 476e 16be
00000390: 2810 94bd be72 0abe b65f 8f3b d4c5 5fbd
000003a0: 1b10 99bb 6cb7 8abb a288 03be 254a ddbd
000003b0: f687 9e3d 68b2 e1bd b6fe 1a3c 02f9 18bd
000003c0: 6c83 96bd b2fc 75bd 11cb 05be e8e1 ddbd
000003d0: 8b4f 533d 1c65 79bd d785 e23d a984 ba3d
000003e0: 835f b5bd b962 913d fd00 c0bc 3f54 1c3d
000003f0: 4bc4 7fbd 38ee 333d 2859 f4bd fbea b13d
-0.032014217 -0.07253917 -0.033418052 -0.121882774 -0.13814643 -0.095207974 0.06461288 -0.15181589
-0.14859106 -0.050817482 0.056843553 0.053645346 -0.16024509 -0.13635752 -0.12957287 -0.14161465
-0.100440025 -0.14946176 -0.0044057476 -0.08270766 0.03951685 -0.023254894 -0.0065891175 0.04726319
0.02164016 -0.09412352 0.07130981 -0.08989152 0.05883952 -0.053516977 0.084307835 -0.123362415
-0.12521671 0.044937614 0.09682547 0.01348565 -0.021281796 -0.06529887 0.05881021 0.09564868
0.053798288 0.028046723 0.086127855 0.033315804 0.05763917 0.060352337 -0.08531054 -0.07649137
-0.09584011 0.02049931 0.068290025 0.049102884 0.02556154 0.051502712 -0.074272454 0.05732332
0.024588322 0.088186294 0.0057537714 -0.08029175 -0.016056728 0.10326138 -0.027840685 0.08452731
-0.058557115 0.13761729 -0.01683556 -0.024590833 0.027975444 0.122765474 -0.03471296 0.015739022
-0.010265668 0.011480961 0.108961634 0.052819535 0.08179748 -0.012633102 -0.11615485 0.09009633
-0.08019462 0.0142737245 -0.12760217 -0.1483743 -0.040665098 -0.12171773 -0.15715598 -0.12024157
-0.04192566 -0.043768533 -0.09543551 -0.021576818 -0.1364523 -0.10031472 -0.12471613 -0.08491082
-0.029396405 -0.14864373 -0.09375885 -0.04565748 0.057679422 -0.12755994 -0.022242235 0.07317915
0.10801285 -0.07660047 -0.036646273 0.0035854515 0.0143599585 0.04413036 -0.056837127 0.056492664
0.05061191 -0.10401331 -0.12684289 -0.13263306 -0.122667156 -0.12119017 -0.072083406 0.05493937
0.06284376 -0.06293931 -0.15504399 -0.006345194 0.012537878 0.04554377 0.08395034 0.117898226
-0.012794003 0.0623894 -0.047542337 -0.102930866 -0.054344844 0.061147973 0.05610351 -0.0857642
0.0019190236 -0.06425339 -0.00028225998 -0.1111959 -0.07904172 0.030695308 0.0068661617 -0.0011697081
-0.025775004 -0.03779344 -0.0638853 -0.057426192 0.062234025 -0.018049823 -0.13959336 0.025237188
-0.15696488 -0.12846473 0.07541374 0.0056588813 -0.108923 0.0055923173 -0.042824335 -0.045786675
0.054857157 -0.043850843 -0.0007368561 0.041833088 -0.14717191 -0.15696888 -0.10577655 -0.07391484
-0.074259184 -0.03582402 0.032892007 -0.074982226 -0.14246625 0.019712659 -0.082544096 -0.107328504
-0.121834874 -0.085239135 -0.043683663 -0.047214817 0.040100545 -0.0017542643 0.052367173 0.0051863384
-0.052111723 -0.011244449 -0.12939751 0.04754366 -0.032750245 -0.14677511 -0.14118887 -0.1406409
0.055793855 -0.028391676 0.04222215 -0.105373435 -0.07564295 -0.14416198 0.0060211113 0.066333726
0.081692405 0.008335643 0.05606224 -0.00073397206 -0.037503 -0.04746293 -0.048479162 0.102012716
0.06693379 0.011436007 0.027655637 -0.07683621 -0.12474409 -0.06119993 -0.09163282 -0.0026460546
-0.010679088 -0.03785787 -0.023457771 -0.06497832 -0.12593938 0.0237354 0.02735364 -0.10511755
-0.06629576 -0.119010925 0.02064031 -0.14690505 -0.07229644 -0.13520333 0.0043754233 -0.054632023
-0.0046711094 -0.0042332914 -0.1284509 -0.108051576 0.07740776 -0.110203564 0.009460142 -0.037346847
-0.073492855 -0.060055442 -0.13065745 -0.10834104 0.05158953 -0.06088744 0.11060684 0.09107334
-0.08856108 0.07098908 -0.023437971 0.03816628 -0.06244306 0.043928355 -0.11931068 0.08687397

bias f4 [6]
00000000: b22a 413e d054 653d 92d8 0c3e 2f3f 523d
00000010: 2ef9 d1bc 0f7b 3bbd
0.18863943 0.055989087 0.1375449 0.051329788 -0.025631513 -0.045771655

weight f4 [16, 6, 5, 5]
00000000: 22d1 90bd 3a13 613d ab5d 2fbd b156 86bd
00000010: 6492 9b39 6ea6 5d3d 9492 1e3d 3fea 103c
00000020: fa47 e8bc d9ce 86bd 1bed 69bc 1dd3 353c
00000030: 05f0 2b3d 2140 f6bc 649a 2bbd 5343 b2bd
00000040: 8e08 0fbc 084b c9bc c0db a03d 7d8a f9ba
00000050: 0bb9 acbd fdc1 baba 2e2d 823d 97e5 6f3c
00000060: f13b c8ba 1243 07bd 935b 093c db35 b0bc
00000070: d212 133c baad 70bd 2dc9 a9bc d0c6 92bd
00000080: 50d6 5cbb 2dbe 91bd eb1e c03c 89b3 003d
00000090: d309 8abd 264a 78bd e464 83bd 6edd 393d
000000a0: f233 d93c 3bc1 3b3d cafc b73d 84bb a13d
000000b0: 2269 adbc b8f5 29bc ff3d 153d e722 ddbc
000000c0: ab27 5ebd 77a9 a73c 095a d1bd 441f 7ebb
000000d0: 259e fbbb 9815 b7bc 81ac 0b3c 4d6d 44bc
000000e0: 5da2 9abd 3a5e ed3b f8bd 7cbc 6df4 903d
000000f0: f3fc 60bd 75c0 2cbd 3c7b 693c 3c2c 92bd
00000100: ce17 413d 6ff1 8bbd 987b b93c faff b33d
00000110: 5462 be3d 673b da3c 8128 adbd 29d3 923d
00000120: ca4f 1a3d d0d8 d5bc 01b3 163c 5196 4bbd
00000130: dc00 09bd 9369 8a3d 36c6 96bd 97ce b3bd
00000140: ea7c 8abd 3e17 debc 124a a63b ca84 0c3d
00000150: 3982 6bbc 8172 98bd 9b41 1fbd 57f4 a23d
00000160: 15d0 dabc 1296 99bd 7185 553d 630b 3b3d
00000170: 8cfc 9c3d fc65 77bd ca13 493c ad54 46bd
00000180: 37c0 c53d d67c 533a 628a 333d 4b59 0c3d
00000190: 1b82 ccbd 392a e63c fbd6 a1bd 1ce5 8bbd
000001a0: 1add 1cbd 971b c6bb a68d adbd ebfa db3b
000001b0: 98c9 793d 12fc 93bd 4486 89bd b592 8c3d
000001c0: 96cd 18bb 7cc4 27bd 4e66 873c 0362 0e3d
000001d0: 9dc5 a83d abd2 823d 317b 843c 92b9 19bd
000001e0: ab5c 333d 4782 263d 2b49 36bd a5ac 983c
000001f0: b511 64bc 23ff 5f3d b7fe ff3c 0c15 5d3d
00000200: e4d7 87bd 0606 b2bd 9b8d 66bd 2fb4 883d
00000210: f1bc 963c b79a 583c da1d 383c 71d9 3abd
00000220: 29ea fd3b a640 26bd 9bd3 a53d 0a63 45bd
00000230: 7ebc 423c 7cdf b4ba ca7f b73d acf2 373d
00000240: 8db0 41bc 1519 363d ca96 5cbc 3214 443c
00000250: 661c ae3d 6eb0 4bbd 7c44 063c 4a07 7ebd
00000260: ce63 49bd 2733 8bbd ef6c c5bd 9965 00bd
00000270: ebcb 023d 0522 193d 4eee aabd d8c8 bf3b
00000280: ba1c a03d 3da7 e73c 43ef 463d 6d50 84bc
00000290: c62c b2bd 5fde b93c bbbc 083d 6ac7 103c
000002a0: 0b20 0bbd 8128 e4bd 08bc 853d c45b 2f3d
000002b0: 19a0 ea3c 5f35 f83b b4ff 43bd 633e f5bc
000002c0: 9b7c 48bd bafb 1439 f339 9fbd a2b2 ee3c
000002d0: bf0e e43b ee0a fdbc 5285 d5bb 8974 e23b
000002e0: 33da 48bd b71b f8bc 5a3f b13d c3a5 27bd
000002f0: ed76 54bb faa6 afbb 5590 a63d 4130 f6bc
00000300: 9585 43bd 27ae 553d 9527 e93c e2b1 1ebc
00000310: a032 c1bb bcb6 adbc 0e97 c93c 47ff f03b
00000320: 589d 30bd dc13 98bd a12f 8f3d 969a 14bc
00000330: cbd3 bdbd 753e b63d e17e 893d d03a 943c
00000340: d6c0 b5bd 4bca d3bc b99b 47bc 6256 9f3d
00000350: 308b 863d d995 433d d8db 3ebc 853a 943c
00000360: eba3 a33d 2e76 cdbc 98d6 703d 3c0f bebd
00000370: 2351 ca3d 1ec6 623d 6d87 2e3d 30b3 71bd
00000380: 0c7d a53c 149c 9a3d a46a 58bd ddec 48bd
00000390: 8830 debd 645f 9dbd 49d0 11b9 466b 5dbd
000003a0: 29a1 a0bd 3d66 74bd 5ca2 9cbd 8435 63bc
000003b0: e3ae 9f3d 1355 4cbd c522 58bc a751 fe3c
000003c0: 00aa d239 af1f 3a3b adcb f6bc 1ae8 a23d
000003d0: 4b54 c3bd b346 393c 7474 193d c65c 4c3c
000003e0: 8dde a63d ada8 84bc a1ee 823c 258f 893d
000003f0: 2430 abbd 14a5 6ebb 0530 d5bc 9b59 bdbc
-0.07071139 0.054949977 -0.042813938 -0.06559504 0.00029672973 0.054113798 0.038714007 0.008844911
-0.028354634 -0.06582422 -0.014277722 0.011097697 0.041976947 -0.030059876 -0.041895285 -0.08704247
-0.008730067 -0.02457191 0.07854414 -0.0019038465 -0.08433732 -0.0014248487 0.063562736 0.014642141
-0.0015276653 -0.033022948 0.008383649 -0.021510055 0.008976655 -0.05875943 -0.02072581 -0.07166827
-0.0033697076 -0.07116351 0.023452243 0.031421218 -0.06740155 -0.06061759 -0.06415728 0.045377187
0.026514027 0.045838576 0.089837626 0.07897094 -0.021168295 -0.010373525 0.036436077 -0.026994182
-0.05423705 0.02046655 -0.10222251 -0.003877596 -0.0076787644 -0.022349164 0.008525015 -0.01198895
-0.075504996 0.0072438987 -0.015426151 0.070778705 -0.05492873 -0.04217573 0.014250573 -0.07137343
0.047141843 -0.06833159 0.022641942 0.08789058 0.09296098 0.026639653 -0.08454991 0.07169182
0.03767375 -0.02610436 0.009197951 -0.0497039 -0.033448085 0.06758418 -0.073620245 -0.08779638
-0.06762107 -0.027110692 0.005074748 0.034306325 -0.014374309 -0.07443715 -0.038880926 0.079567604
-0.02671055 -0.07499327 0.052129213 0.045665156 0.07665357 -0.060399994 0.0122727845 -0.048420597
0.09655803 0.0008067613 0.043833144 0.034264844 -0.09985753 0.028096305 -0.079023324 -0.068308085
-0.038296796 -0.0060457694 -0.08474283 0.0067132614 0.06098327 -0.07225813 -0.06715062 0.0686392
-0.0023315898 -0.040958866 0.016528275 0.03476144 0.08240817 0.06387838 0.016172023 -0.03753049
0.043789547 0.040651586 -0.044503372 0.01863701 -0.013920237 0.054686677 0.031249387 0.05397515
-0.06632975 -0.08692555 -0.05628739 0.06674992 0.018400641 0.013220481 0.011237586 -0.045617525
0.0077488613 -0.040588997 0.08097001 -0.048190154 0.01188576 -0.0013799514 0.08959921 0.044909164
-0.011821878 0.044457514 -0.013463685 0.011967706 0.0850151 -0.049728803 0.008195039 -0.06201867
-0.049167447 -0.06796866 -0.09639918 -0.03134689 0.031932753 0.03738596 -0.08346234 0.0058528
0.07817979 0.028277988 0.04856802 -0.016151631 -0.08699946 0.022689043 0.033383112 0.0088366065
-0.033966105 -0.11140538 0.06530005 0.042812124 0.028640794 0.0075747217 -0.04785128 -0.029936975
-0.048946958 0.00014208155 -0.07774725 0.029137913 0.0069597657 -0.030889 -0.006516137 0.0069108647
-0.049036216 -0.030286653 0.086546615 -0.040929567 -0.0032419518 -0.0053604813 0.08132998 -0.030052306
-0.047734816 0.052168038 0.028461257 -0.009685965 -0.0058959275 -0.021205299 0.024608161 0.00735465
-0.043118805 -0.07425663 0.06991506 -0.009070059 -0.09268912 0.088986315 0.06713653 0.01809445
-0.08874671 -0.025853297 -0.012183123 0.07780148 0.06569517 0.047750328 -0.0116490945 0.01809431
0.07990249 -0.025080767 0.058798403 -0.092802495 0.09878757 0.05536472 0.04260962 -0.059008777
0.020201229 0.07549301 -0.052836075 -0.049054015 -0.108491 -0.0768421 -0.0001390587 -0.054057382
-0.07843239 -0.059667815 -0.07648155 -0.01386774 0.07797029 -0.04988582 -0.013191883 0.031044794
0.0004018098 0.0028400233 -0.030126417 0.07954426 -0.09537562 0.01130836 0.037464574 0.012473291
0.08147917 -0.016193712 0.015982928 0.06716756 -0.083587915 -0.0036414312 -0.026023874 -0.023114016

bias f4 [16]
00000000: 5720 073e 13fa 9abd 99bd 5eba 370f 34bb
00000010: 92b2 1abd b27a 54bb 3f2f 0b3b 3f4f abbd
00000020: 5915 063e 1261 283d d973 e9bd caba 093e
00000030: bf60 57bb 346f c1bd b452 6cbd 40ef 60bd
0.1319593 -0.07567229 -0.000849688 -0.002747489 -0.037767954 -0.0032421765 0.0021237878 -0.08364724
0.13094081 0.0411082 -0.11399049 0.1345016 -0.0032864062 -0.094450384 -0.05769606 -0.054915667

weight f4 [120, 16, 5, 5]
00000000: 0d41 8d3d 98f8 863d 3986 783d 1834 5a3d
00000010: 08ff b73d 4ed4 af3d e9c8 843d 8461 133d
00000020: c723 593d f01f c93d 37e8 ec3c c179 d83d
00000030: 656e 903c 1e32 773c 709c 1c3d 8da0 be3d
00000040: a7c0 e73d 0968 933d bb78 043c 3d9c 9b3d
00000050: fcf8 c73d 7da4 013c a961 333d cdbf db3c
00000060: ffd1 eb3c 3186 bebc fcf1 88bb 9a2a a4bb
00000070: 83e9 0b3d ade6 563d 69aa 07bd 277b 073d
00000080: e492 5f3d 0b49 8d3d 6ad1 c33b 5f0e 753d
00000090: 6f61 b43c 207b 423d d498 003c f696 db3b
000000a0: 8b6c cabc 5f72 6e3c d9ce 51bc a1e2 273d
000000b0: da7b aa39 4824 013d 6ad3 483d 6772 fe3b
000000c0: e033 183d dbf5 ae3c bd79 e4bc 50e0 0a3d
000000d0: 2c38 8bbc 1f73 f1bc 142a edbc 3f54 62bd
000000e0: e7a2 46bd 2516 0dbd 74f5 d8bc 6613 b0bb
000000f0: d008 6bbd 60d6 fa3c a1c1 063d f3e9 123d
00000100: 1c56 213d ff58 a4bb 3cec c2bc d16f 1ebd
00000110: f2cb 2c3d 7007 46bc e991 963c a6bb 103d
00000120: 44d0 aebc 52c8 da3c fe4c adbc c7db cbbc
00000130: 6cdd 05bc aab1 f33b da1d 35bc 2b7d 1fbd
00000140: f05a 973c 1ede 643c 4ee4 d1bb 2af4 20bd
00000150: d03a 18bd 7137 38bd 5365 e8bc 93ea 1e3c
00000160: 6a0b 393d 0743 97bc 9476 c53c bc50 7e3b
00000170: 0889 283d 97b7 99bc 04f3 623d dfc3 46bd
00000180: 95a6 c6bc 7a22 173c cdf0 723d 03ad 0c3d
00000190: 97a5 b1bc 5827 24bd d6f7 d43c 0167 f53c
000001a0: 50d5 143c 1810 983c e177 d83b c94f 09bd
000001b0: f693 d4bb fa4e 23bc ada4 36bc 28b9 2bbd
000001c0: e204 3abd 437b 923c e353 4e3d b940 183d
000001d0: 2057 303c b0e2 3fbc b998 913d ff3b 9a3d
000001e0: e637 2b3c 1e5a 0ebc c9b1 b33b caeb 483d
000001f0: edea c53c 105e 3cbd dab5 cebc 75e9 423c
00000200: d4a6 f6bb 44d8 60bb d7eb c0bc f9a2 713c
00000210: 8c0b 1b3a 1120 19bd 3616 0f3d ea41 d5bc
00000220: 394f d4bc 9eb1 da3c 4116 15bd 4295 f23c
00000230: d278 42bd 9f2d b83b f3ef ddbc 4e5c ffbb
00000240: eb9a c5bc 551a 7abb c77f f33c 700b 963b
00000250: e122 4cbc 6c95 553c 41a1 fe3c 1bd6 06bd
00000260: 9dba e7bc 9ec4 0a3d 7218 303c 2a03 35bb
00000270: 1ba8 5bbd 57b8 6bbd ddd0 cdbc d325 083d
00000280: 42fa 31bc 4eb4 0fbd ebfe fa3c ddd3 8cbc
00000290: 1560 6d3d 2565 0fbd e446 233a 2ffe 2b3d
000002a0: 02a1 96bc befc 633d b220 81bd 4fab b3bc
000002b0: 989d 273d d6da 093d 78e0 c33c 73de 6a3c
000002c0: ae49 3ebd 71e7 443d 5199 a5bc aef0 e43c
000002d0: 8867 4d3c dd44 de3b eb04 f0bc b2f6 27bd
000002e0: e2dd f5bc 5c70 bcbc 940b 16bd 6154 393d
000002f0: 2003 543d 80de 593c 3718 fe3c 54c6 0ebc
00000300: 278d 563c 728f 843c 9079 9a3b 0919 ecbc
00000310: 7e9e 5f3d b293 11bb effb 90bc 86c0 2f3d
00000320: b745 003d 3a84 8c3c 0398 b53c 2c4e f4bc
00000330: 05c1 0ebd 89f0 93bc 6dc9 f2bc df3d d13c
00000340: d45a 6bbc c683 563d 4523 37bb 2d2c 26bd
00000350: fe26 1abd 57df e3bc 5dbe 533d 1d3b 8f3c
00000360: a542 1abd 6277 233d 798a b3bc 4039 873d
00000370: 9c92 d2bc 0413 19bc c423 263d 7d6e 403d
00000380: e42d bb3c f957 923d 3792 903d 592c 8dbc
00000390: 4829 b73c 8720 353d f566 553d ca62 67bc
000003a0: eea2 a6bc 5a77 cf3c 87de ef3c e8d7 5c3d
000003b0: 1ac9 d8bc e8b8 cd3c 3a5b db3c b033 533d
000003c0: 3807 f73c 2f86 7abc 4804 3e3d a766 503c
000003d0: 2527 003d c8df 7d3d 9844 833d bac1 9f3d
000003e0: eac8 0b3d 3141 583d 9855 0b3c 2de0 6f3d
000003f0: b8fd 2d3c dadb 0f3d af0a ad3b 2120 1fbd
0.06897173 0.06590384 0.06067488 0.053272337 0.0898419 0.08585416 0.06483633 0.03598167
0.053012636 0.09820545 0.028919322 0.10570098 0.017630765 0.015087632 0.038235128 0.093079664
0.113160424 0.071975775 0.008085425 0.075981595 0.09764287 0.007912752 0.043794308 0.026824856
0.028786657 -0.023257347 -0.0041792374 -0.0050099613 0.03415824 0.052466083 -0.0331215 0.03307643
0.054583445 0.068986975 0.005975892 0.05982816 0.022019116 0.047480702 0.007848937 0.0067013456
-0.02470996 0.014553635 -0.012805664 0.040987615 0.00032517203 0.03152874 0.049029745 0.0077651027
0.037158847 0.021357467 -0.02789008 0.033905327 -0.016994558 -0.02947384 -0.028950728 -0.055256125
-0.0484952 -0.034444947 -0.026484229 -0.005373406 -0.05738145 0.0306198 0.032899503 0.035867643
0.03938876 -0.005015492 -0.023794286 -0.038680855 0.042186685 -0.012086734 0.018380122 0.035335205
-0.021339543 0.026706848 -0.021154877 -0.024885071 -0.008170467 0.0074369507 -0.01105448 -0.03893773
0.01847598 0.0139689725 -0.00640539 -0.039295353 -0.037165463 -0.044974748 -0.028368628 0.009699482
0.0451769 -0.018464578 0.024104394 0.0038805446 0.04114631 -0.0187643 0.05540754 -0.04852664
-0.024249354 0.009224528 0.059311677 0.034344684 -0.021685405 -0.040076584 0.025997084 0.029956343
0.009084061 0.018562362 0.0066060876 -0.033523355 -0.006487365 -0.00996756 -0.01114766 -0.041924626
-0.045414813 0.017881041 0.05037297 0.0371711 0.01076296 -0.011711761 0.07109208 0.075309746
0.010450339 -0.008688478 0.00548384 0.04905299 0.024159873 -0.045988142 -0.025233198 0.011896481
-0.0075272117 -0.0034308592 -0.023549957 0.014748328 0.00059145014 -0.037384097 0.03493329 -0.026032407
-0.025916683 0.026696023 -0.036398176 0.029612187 -0.047478504 0.005620673 -0.027091956 -0.007792986
-0.024121722 -0.0038162668 0.029724015 0.004579 -0.012459488 0.013036113 0.031082751 -0.03291903
-0.028287226 0.033878915 0.010748016 -0.0027620294 -0.053627115 -0.057548847 -0.025124008 0.033239197
-0.010862889 -0.03508406 0.030639132 -0.017190868 0.05795296 -0.03500857 0.000622852 0.041990455
-0.018387321 0.055660956 -0.06305064 -0.021932272 0.040921777 0.033655964 0.023910746 0.014335263
-0.046456985 0.048072282 -0.020214709 0.027946796 0.012536891 0.0067831115 -0.02929922 -0.04100675
-0.030013029 -0.023002796 -0.036632136 0.045246486 0.051760793 0.013297677 0.031017406 -0.008714277
0.013095177 0.016181681 0.0047141984 -0.028820531 0.05459451 -0.0022213277 -0.017698256 0.042908214
0.031316485 0.017152894 0.022167211 -0.029822432 -0.034852047 -0.018059032 -0.029637063 0.025542198
-0.014364917 0.052371763 -0.0027944606 -0.040569473 -0.037634842 -0.027816458 0.051695216 0.017484242
-0.037661213 0.039908774 -0.021916615 0.066027164 -0.025704674 -0.009342913 0.040561453 0.04698037
0.02284903 0.07145686 0.07059138 -0.01723306 0.022358552 0.044220474 0.05210014 -0.014122674
-0.020341363 0.025325466 0.029280914 0.05391684 -0.02646308 0.025112584 0.026776899 0.051562965
0.03015481 -0.015290781 0.0463908 0.012719787 0.03128733 0.061980993 0.064095676 0.07800622
0.034127153 0.052796546 0.008504294 0.0585634 0.010619573 0.035121776 0.0052808146 -0.038849

bias f4 [120]
00000000: 6859 973d c179 3dba 25e1 093e 1cca a3bd
00000010: 7176 df3d ee6d 8a3c 4ca3 a03d ed8b 803d
00000020: 378d 5abd 50a1 fb3d feea f0bc 94de 1fbd
00000030: 1244 95bd f958 53bd 8d4d 0a3e b1be 0ebd
00000040: 6212 36bc ccef bdbd f2fe f73d f93b 6c3c
00000050: 5f35 c6bd f241 213c 301a 14bd 573b 693c
00000060: 60c7 b838 7c36 523d c8d1 473c 83e6 173d
00000070: 7e8a 253d f104 1fbd 0c03 a9bd a722 bfbb
00000080: 1d01 cebd 2271 bdbb 47ab 89bd 8926 a93d
00000090: 60c4 f9bc 85ef 9aba 43fd 783d 47c6 023e
000000a0: 6181 babc 26eb 8cbd ef54 b03d 3942 af3d
000000b0: 7cfc 89bd ab17 bc3a c055 76bb e92b cc3d
000000c0: 821f f13d 5b3d 953b 2093 0f3e 46ef 29bb
000000d0: 97b7 2c3c b23b bdbc 9404 a93d 33da f6bc
000000e0: af7c 5bbc 0b8a ab3d eb18 a13d 932f 853d
000000f0: fe95 4d3d 34ba d5bd 47e2 8e3d 19d3 38bd
00000100: 7421 24bc 9129 afbd 277c 813d 788d e6bb
00000110: 11b1 053e 2530 0dbd 3160 b03d 1396 3d3d
00000120: c16d 21bd f39d e33c e34c 753d 3d60 1ebd
00000130: 3e1a ccbd 8487 edb9 5c74 81bd 2015 4fbd
00000140: 9bce cebc 71a2 64bd 7bf8 11bd dfcd 0cbd
00000150: 872a 9cbd 09db 46bd a864 2dbd 0abf 43bd
00000160: b903 6cbd 5199 0c3d c7ee f43d 3d64 033d
00000170: b895 bcbd b745 bebd 7291 083e 9a82 1c3d
00000180: 6814 bf3d 2ef9 4cbd 7d13 c43d 5ae4 17bd
00000190: e25d dc3d ccba 2fbd c2f1 dbbc 606a 57bd
000001a0: 99e0 973d 9c64 f73d 08be 8cbc 5fed d9bb
000001b0: 614a bf3d 6022 04bd b4bf 4fbd de49 8c3c
000001c0: 4896 743c ffc7 c03d d9dd d6bc 3987 bebd
000001d0: 9747 893c a0fd d83d 459b 85bd 25ec ed3d
0.073901 -0.00072279206 0.13464792 -0.07997534 0.10911263 0.016898122 0.078436464 0.06276689
-0.05335733 0.12286627 -0.029408928 -0.039030626 -0.07288374 -0.051598523 0.13506146 -0.034849826
-0.011112781 -0.09274253 0.12109174 0.0144185955 -0.096781485 0.009842383 -0.036157787 0.014235339
8.81094e-05 0.05132149 0.012196012 0.037085067 0.04041528 -0.038823072 -0.08252534 -0.0058329883
-0.10058806 -0.0057813087 -0.06722122 0.08259303 -0.030489147 -0.001182065 0.060788404 0.1277095
-0.02276677 -0.068807885 0.0860995 0.08557553 -0.06737611 0.0014350315 -0.0037587732 0.09969313
0.11773588 0.0045544333 0.14020967 -0.0025929972 0.010541818 -0.023099754 0.08252826 -0.030133342
-0.013396426 0.08375939 0.07866081 0.06503215 0.05019187 -0.10435906 0.06976753 -0.045123193
-0.0100177415 -0.0855285 0.06322508 -0.0070359074 0.13055827 -0.034469742 0.08612097 0.0462857
-0.03941131 0.027785277 0.059887778 -0.038666 -0.09965943 -0.0004530513 -0.06321022 -0.050557256
-0.025245002 -0.05581898 -0.03563736 -0.03437602 -0.07625299 -0.048548732 -0.04233232 -0.04778961
-0.057620738 0.0343259 0.11959606 0.032078017 -0.09208244 -0.09290641 0.13336733 0.03821049
0.09330064 -0.050042324 0.095740296 -0.037083007 0.10760094 -0.042902753 -0.026848678 -0.05259168
0.074158855 0.120797366 -0.017180458 -0.0066506113 0.093403585 -0.032259345 -0.05071993 0.017125066
0.014928408 0.09413146 -0.026228832 -0.093031354 0.01675777 0.1059525 -0.06523756 0.116173066

weight f4 [84, 120]
00000000: d772 213d 816e e53d 566e 82bb 216d 6a3d
00000010: 19e3 77bd 3f8e 333d 7750 3e3d 6da7 813c
00000020: 4312 b33d 4726 b13d 076b f43c cd6a 55bd
00000030: 5cfc 9e3d ce8d a53d 67fd e7bd 0968 9d3d
00000040: 2920 9a3c 9fad 5ebc f665 2ebd e1c0 83bd
00000050: 4b85 083e 09e5 a83c b084 1e3d 4a16 873b
00000060: 442e f73c 5a38 b53d 0e8f d93d f546 88bd
00000070: 6202 743c c5ca 32bc 2209 8e3d 772c 55bd
00000080: f356 0f3e c370 7d3d e334 8d3d 748e 45bd
00000090: 7268 5c3d a4c4 6c3d 567d 583c cec1 d4bd
000000a0: dcd3 ab3d cfe4 25bc a5df 2cbd a676 4ebb
000000b0: bb7a 06bd c851 373c 833c 8a3d 0f4a 3abd
000000c0: 465f ea3d 960e 663d cbdb 9ebc 640e 233c
000000d0: 0935 16bb 03d7 083c 1faa 33bd 5ac4 923c
000000e0: bafa 9e3d f0d1 2c3d 1acc 1ebc 5b5e 4bbd
000000f0: fc1c c93d 10b1 ee3d a63d 9c3d 09e9 9ebb
00000100: 10d5 ffbc 9c28 b8bc e057 aa3d 71d8 ad3d
00000110: 315a 43bd 5572 a5bd 989f 013e 66ea b63c
00000120: 3647 223c e46f d4bd c564 66bd c89b 0d3d
00000130: 42f5 463d e3f3 503d 9775 40bd e21e af3d
00000140: 4a99 9bbd b47e 29bc f302 b4bd c48c 73bc
00000150: 78da ef3d de38 60bc ef14 923d 53a3 2f3d
00000160: da35 2d3c 3c83 c83c 875e 90bd b82f cd3c
00000170: b8fb 9c3d c4cf 283d a112 7a3d 74ae f23d
00000180: 8b87 873d e620 783d e974 933d 1784 60bd
00000190: 5ade 20bd 245c c53c 9254 75bd bbee c73c
000001a0: 4688 103b 3de0 9ebc dbe7 723b 0596 4a3d
000001b0: afd2 8ebb bc3b 9fbc da59 663d c9f8 123d
000001c0: 2dbe 013c 09c8 18bd d1dd c43c 9b53 b2bc
000001d0: 9b9d 33bd e599 033c 3ac9 28bd 196c 0c3d
000001e0: a388 0cbd 99fe 27bd 0301 f83c 022e afbd
000001f0: 0763 7bbd 9e99 4dbc 3b78 4ebc 2f59 63bd
00000200: 59af 0fbd 9793 5a3d f0d6 823a 9471 a73c
00000210: 7b83 cd3b 6f26 7a3a fc7a 5bbc 3a98 583d
00000220: c072 aa3d 47ba 8abc c903 9fbd 3979 c23d
00000230: c52d 15bd f2a9 9ebd 6e87 cb3b 5031 27bd
00000240: 0e6a b03d 941a a43d b0ab c03d 6dd0 863d
00000250: 7ff8 6b3d ea07 413d 3a26 70bd 9c1e c8bb
00000260: abc6 883b f001 a93d 24e3 113c b0b9 033d
00000270: faba afbd b842 943d 7ca2 373d 9850 8bba
00000280: 1b6c 0dbd 7c65 b83c 51cd 233c ed74 68bd
00000290: 7e93 803d c809 76bc 0649 e6bb 6b81 32bd
000002a0: 9227 6aba 06d8 9a3d 220c 113d db40 663d
000002b0: e081 263d f0da bf3d 903d 733d 95cb 4b3d
000002c0: c701 d23d ffe5 a7ba 2565 0bbd 8a02 af3c
000002d0: 9ea3 8d3c 2e9f 053d 9cf3 13bd 1067 723c
000002e0: de46 eb3d 646b eb3c 2c25 a53d 6dfb 963d
000002f0: 34bc 80bc 0405 a6bd e736 9abd 2137 c83d
00000300: c16a 063b 5097 eb3d a7e3 8d3d 8cf8 b93d
00000310: 4e3a e63d 1303 9dbd a95d 463d ba3f 4b3d
00000320: 2e3e 0f3d 9aa0 af3d 58d6 82bd d8d6 8cbd
00000330: e0b0 9bbd c4df 903b 69ad a13d 1add 423d
00000340: db12 d33d 35d8 e43d 4e78 f9bb 999e 05bb
00000350: 9487 6b3d d335 2a3c 8181 a7bd af93 2abd
00000360: 771e 36bd 0a8c fe3d 100f 913d 8d4b bc3d
00000370: d661 fc3c adfc 86bd 4e97 123c 9db2 16bd
00000380: ad9b 83bb cbde 85bb 9215 813d 6bda 203d
00000390: cb15 6bbd fc03 11bd d462 aa3c f275 b2bb
000003a0: 2474 b5bc 61df febb 8ebe f5bb e450 933d
000003b0: e3f5 05bd 9c79 06be 447e 4ebb a728 b4bd
000003c0: cfa6 533c 682f 7e3d 160b fcbd f212 0b3d
000003d0: 90d4 f5bd 978b 82bd cdfc 8cbd b7bc 3a3d
000003e0: bdc0 73bd d40d 93bd 3c4e d83d 63ec b3bc
000003f0: 9649 163d 1935 003d 8437 f6bd 98a6 893d
0.03941616 0.112027176 -0.003980438 0.05723298 -0.06051931 0.04383683 0.046463456 0.015826905
0.087437175 0.08649879 0.02983619 -0.052103806 0.077629775 0.08083688 -0.113276295 0.07685859
0.018814163 -0.013591199 -0.042577706 -0.06433273 0.13332097 0.020617025 0.03870076 0.00412253
0.030173428 0.08848639 0.10622989 -0.06654159 0.014893146 -0.010912602 0.06935336 -0.052044358
0.13998012 0.061875116 0.06894853 -0.048231557 0.053810544 0.05780472 0.013213476 -0.10388528
0.08390018 -0.010125353 -0.04220547 -0.0031503825 -0.03283189 0.011188932 0.06749823 -0.045480784
0.11443953 0.056166254 -0.019391915 0.009952161 -0.0022919795 0.008352044 -0.043863412 0.017915893
0.07762666 0.0421924 -0.009692216 -0.04965053 0.098199815 0.11654866 0.07628946 -0.0048495573
-0.031229526 -0.022480302 0.08317542 0.084885485 -0.047693435 -0.08078448 0.12658536 0.022328567
0.009904673 -0.10372904 -0.056248445 0.034572393 0.04857374 0.05101384 -0.046987142 0.08550812
-0.07597597 -0.01034515 -0.08789625 -0.014865104 0.117115915 -0.013685433 0.07132899 0.042880367
0.010571921 0.02447664 -0.0704928 0.025047168 0.07665199 0.041213766 0.061052922 0.118496805
0.0661765 0.06057825 0.07200033 -0.05481347 -0.03927455 0.024091788 -0.059895106 0.024405828
0.0022053882 -0.019394035 0.0037064466 0.049459476 -0.0043586115 -0.019437663 0.056238033 0.03588179
0.007918877 -0.037300143 0.024031552 -0.021768382 -0.043851476 0.008032297 -0.04120753 0.034282777
-0.034309994 -0.041014288 0.03027392 -0.08553697 -0.061373737 -0.012548832 -0.012601907 -0.055504974
-0.035079334 0.05336341 0.0009982269 0.0204399 0.006271777 0.000954247 -0.013396021 0.05287955
0.08322668 -0.016934527 -0.07764394 0.09495778 -0.036420602 -0.07747258 0.006211213 -0.040818512
0.08613978 0.08012882 0.09407747 0.06582723 0.05761003 0.047126688 -0.058630206 -0.0061071645
0.0041740737 0.08252323 0.008904252 0.032159507 -0.08580585 0.07239288 0.04483269 -0.0010628877
-0.034526926 0.022509329 0.009997682 -0.056752134 0.06278132 -0.0150169805 -0.007027748 -0.043580454
-0.0008932288 0.075607345 0.03541196 0.056214195 0.040651202 0.09367931 0.059384882 0.049754698
0.10254245 -0.0012809633 -0.034032006 0.021363515 0.017289933 0.03262251 -0.036120996 0.01479508
0.11488126 0.028737731 0.080637306 0.073721744 -0.015714742 -0.081064254 -0.07530003 0.0977614
0.0020510408 0.1150347 0.06928187 0.0908061 0.112415895 -0.07666602 0.048429165 0.04962132
0.03497141 0.08575554 -0.06388539 -0.06876916 -0.076020956 0.004421206 0.078944035 0.04757414
0.10306331 0.11174051 -0.0076132184 -0.002038872 0.057502344 0.010388809 -0.08178998 -0.04164475
-0.044462647 0.12429054 0.07082951 0.09194098 0.03080837 -0.06591163 0.008947207 -0.036791433
-0.0040163607 -0.004085397 0.06302942 0.0392708 -0.05739383 -0.03540419 0.020799078 -0.005446189
-0.022150107 -0.0077780937 -0.0074995225 0.07193163 -0.0327052 -0.13132328 -0.0031508366 -0.08796816
0.012918188 0.06205693 -0.12306802 0.033953615 -0.12003434 -0.06374281 -0.068841554 0.04559013
-0.05950998 -0.07180372 0.10561797 -0.021963304 0.03669127 0.031300638 -0.120223075 0.06721228

bias f4 [84]
00000000: f6dc a5bd a4d4 19bd 563b ccbd ce9d b73d
00000010: 037e a9bc e5af 40bd 3869 0bbe 0eec 0abd
00000020: c1a8 8cbd 3067 0abd aabe 01bc e811 bc3d
00000030: 8da8 153e b9b8 87bd 873e 693d 6a0b 0e3e
00000040: 80cb 193e f8dc 3cbd 42ee 123e fc2b 373d
00000050: bb37 893d 41a7 76bd 74f9 a93d fe0a 113d
00000060: 2945 4ebd 7bae be3c 30b9 bbbd 759e 13bd
00000070: 6485 ab3d 9675 bcbd dc83 6a3d ad89 8ebd
00000080: cf6c db3b af05 4bbd 4135 c53d f00a 3c3e
00000090: 8332 aabd 2e44 a53b cf08 85bd 197f 073e
000000a0: e2e0 48bd 6307 f83d 8a8f cf3d 8431 a13d
000000b0: eaad 5bbc bb05 d13c d24b 79bd 2386 f6bd
000000c0: b529 e63d c883 37bd a87a 883c 7a62 53bd
000000d0: 339a fb3b 4182 4bbc 942b 733d 82ff 9bbc
000000e0: 78b4 103e 5151 85bb f78e 47bd b945 033e
000000f0: 2e06 b0bd 309d 7bbd 44ac 393b 87d5 273d
00000100: d2fc 9abd e387 bebd 175e 49bd d36c f6bd
00000110: 717f 9f3d f4f1 9e3c c308 dd3d 657e e53c
00000120: c4ac 54bd 87ab ddbc 67a5 063e 6a02 033e
00000130: 2a46 0cbd e511 d1bd 467e 353d b2d5 06bd
00000140: 1f83 873d 8c88 94bd 7f11 893d 6016 5f3b
-0.080987856 -0.037556306 -0.09972255 0.08965646 -0.02068997 -0.047042746 -0.13614357 -0.033916526
-0.06868125 -0.033789814 -0.007918993 0.09183103 0.14615078 -0.0662703 0.056944396 0.13871542
0.15019035 -0.04610917 0.143487 0.04471968 0.06700083 -0.0602181 0.082995325 0.035410874
-0.050358925 0.023276558 -0.09166181 -0.03603979 0.083750516 -0.09202115 0.057254657 -0.06959853
0.0066963206 -0.049565967 0.09629298 0.18363547 -0.083104156 0.005043528 -0.06495821 0.13232078
-0.04904259 0.12110784 0.101348 0.078707725 -0.013408164 0.025515428 -0.060863324 -0.12037303
0.11238424 -0.04480341 0.01666005 -0.051607586 0.007678294 -0.012421192 0.05936773 -0.019042734
0.14131343 -0.0040685316 -0.048720326 0.12819566 -0.08594929 -0.061429203 0.0028331438 0.04097512
-0.07567753 -0.09303262 -0.049161997 -0.12032475 0.077879794 0.019402482 0.10792687 0.028014371
-0.051922575 -0.02705933 0.13149033 0.1279389 -0.0342466 -0.10208491 0.044309877 -0.03291864
0.06616806 -0.07252607 0.0669279 0.0034040436

weight f4 [6, 84]
00000000: 01db a8bd e6d7 15bd 04f9 dcbd bc18 a8bb
00000010: 01cb 293d e0d6 4abd ae51 e7bd 1278 bcbd
00000020: 908f 8b3d 0edc 95bd f3cf 14be fa45 c4bd
00000030: b85a 3e3c a2a0 e83b 96d4 1abd a680 1a3d
00000040: 404a b537 7023 493d 7535 043e 9554 1dbe
00000050: 5cef 8bbc df2c 7dbc 4e5d 6e3d 6f73 05be
00000060: e63c 213d b8f7 e53d 15b8 753c fed1 c4bc
00000070: 683b d63a 9e86 ab3c a730 29bc 65dc a13c
00000080: 3020 b83d c4ff 81bd 1716 6d3d 599e 093d
00000090: 39af 09be e23d 63bd 7c2d cebd 80d0 0d3d
000000a0: c9a7 1c3d 9f28 4e3d 3a40 04be 3be3 ebbc
000000b0: 26eb 08bd 7d9a 00be 710e dcbd e69b 6bbd
000000c0: 587e 093e b25d e9bc 5fe9 9c3b ba50 16bc
000000d0: 8260 cdbd e820 a13b 01f5 e7bd 68d4 823d
000000e0: 44d6 263e db98 c3bd 131d 2a3d e98c c43d
000000f0: 5e93 903c fcd0 3b3d d706 503d f539 8e3d
00000100: ce2c c7bd 47e2 c93c 5ce9 e8bd e5cf da3c
00000110: 314e 35bc f33e 623c 0c91 5a3d 05a2 3bbc
00000120: 4843 f1bc 379b 843c 43ad b4bb 681c 063e
00000130: dfdb 653d eefa 693d 1dde 0f3d e53f 953d
00000140: 415a 723d e709 bcbd 745b a23d 4897 233c
00000150: 6c42 723d e8b3 cb3d aae4 0abd 471e 01be
00000160: a354 6dbd 6b83 d83d cead cdbd 47fa 613d
00000170: c06a 6fbc 7ffd ae3d 02a5 cabd 99e9 aa3d
00000180: 61c4 06bc 45cd 48bd d153 b23d 46d1 1dbe
00000190: 2474 89bb 5ad0 b3bb a620 b03c 0ae1 04bd
000001a0: 8660 84bc 6c6b 1ebd e1dd fabd 0960 e33c
000001b0: 02c3 60bd eb2f 89bd 9cdc 18bd 0507 003c
000001c0: 944e a9bd 3f67 ccbd 0e35 6e3c 4fb3 a93c
000001d0: 8279 31bd 7c0e 9fbd e422 06be c7a3 cebb
000001e0: 6c71 a3bc b336 873d 6979 bcbd 2866 1fbd
000001f0: 9ee0 adbd 9c1a 61bb 98e1 6a3d 6da9 dcbd
00000200: 32f5 ba3d 6d70 8bbc ccc8 b3bd 1c2a 47bd
00000210: 0812 8dbd 7b9d ccbd c94a 433d d772 7abd
00000220: 3a5f a6bd 8bca 583b 3565 373d 336e 79bc
00000230: 6285 7dbc 29a7 83bc 5286 643c 9eec b4bd
00000240: d449 963d beb8 98bd 15cc ccbd 56de 72bd
00000250: 8d2c 4ebd f7aa bc3d deb3 433d eb60 84bd
00000260: 5158 20be caa2 b23d b429 dfba 2d56 97bd
00000270: 0e2d 90bd 9400 61bd d7d1 28be 1137 53be
00000280: bddc a83d 14fe 143d 4a62 0abe ef48 703d
00000290: 7965 0ebb 9845 98bd 4dd5 b4bd 2c5d 40bd
000002a0: 3c1a cebd 0fb4 2ebd 0080 42be 8219 2dbc
000002b0: 564d d93d ac3c c1bc 8585 b0bd 9cf6 96bc
000002c0: ca8c 6cbd ab3f 1e3d 5c45 28be 1257 1abe
000002d0: 2338 1c3d eb39 c23d f165 2fbe 9943 b03d
000002e0: 232d 0c3e f297 9abd 511e 9b3d ded3 12be
000002f0: 97a3 2dbd fb95 a43b 7734 573d 5dc3 04be
00000300: 6976 b5bd 1d18 043e 7aba 35ba 5c2e fbbc
00000310: c37d 8a3d fc65 10be 2160 50bd 1080 79bc
00000320: cd79 e83d c588 c0bd 53b8 063e cdd2 9e3d
00000330: c9e7 563d d541 b1bd ac23 233d 0ceb 3f3e
00000340: 329e 9abd 8a76 df3d 4ce1 73bd 9350 493e
00000350: effc 563d cfb1 32bd 1bca a5bd e021 0abd
00000360: b676 233e d1dc 38bc 8ce0 11be eb72 f33b
00000370: 7782 c7bd 0041 203d a60d c9bd c80b 9bbd
00000380: 3193 473e fcba 03be 58f1 833b 1dd1 193e
00000390: 07fc a43c 447a d73d 450e 3bbd 5e82 993d
000003a0: 056d 1ebe 710c b6bc 5406 c03d c872 1e3c
000003b0: 35f5 263e 970d c0bd b090 b63d 4f87 66bd
000003c0: 05bc 48bd 87fc 05be 7562 283e 9fa8 533d
000003d0: c4e1 523d ec89 4fbd 9906 a53b 367e 4fbd
000003e0: 323f 13be 7bc8 1bbd c252 aebb 8e16 0cbd
000003f0: ee63 a53d 5c85 543d 1e45 9f3d bc64 14be
-0.08244897 -0.03658285 -0.107896835 -0.0051299017 0.041453365 -0.049521327 -0.11294876 -0.09202589
0.06814492 -0.07317363 -0.14532451 -0.095836595 0.011618309 0.007099227 -0.037800394 0.037720345
2.1611457e-05 0.04910606 0.12911017 -0.15364297 -0.017081909 -0.015452593 0.05819445 -0.13032316
0.039364718 0.11228889 0.014997502 -0.024025913 0.0016344609 0.020938214 -0.010326541 0.019758413
0.08990514 -0.063476115 0.057882395 0.033598278 -0.13445748 -0.055478938 -0.10067269 0.03462267
0.03824595 0.050331708 -0.12915125 -0.028794875 -0.03342738 -0.12558933 -0.10744942 -0.057521723
0.13427103 -0.02848706 0.004788562 -0.00917452 -0.10028173 0.004917253 -0.11326028 0.063881695
0.16292673 -0.09550639 0.041531634 0.09597189 0.017648395 0.0458536 0.050787773 0.06944648
-0.09725343 0.02464403 -0.11372635 0.02671046 -0.011066006 0.013808954 0.053360984 -0.011452203
-0.029451028 0.016187293 -0.0055138185 0.13096774 0.05611789 0.05712407 0.035123933 0.072875775
0.059168104 -0.09181576 0.079275995 0.009984799 0.059145376 0.09946424 -0.033909477 -0.12609206
-0.057942044 0.10571941 -0.10042916 0.055170324 -0.0146128535 0.08544444 -0.09894754 0.083453365
-0.008225531 -0.049023885 0.08707393 -0.15411863 -0.0041947532 -0.005487484 0.021499943 -0.032441176
-0.016159307 -0.038676664 -0.12249351 0.027755754 -0.054873474 -0.06698593 -0.037319764 0.007814174
-0.08266941 -0.0998063 0.014539016 0.020715384 -0.04332877 -0.077664346 -0.13099247 -0.006306145
-0.019951545 0.0660223 -0.09202845 -0.038915783 -0.08490108 -0.0034348136 0.05734405 -0.10774503
0.091287985 -0.017021382 -0.08778533 -0.048624143 -0.06888205 -0.099909745 0.047678743 -0.061144676
-0.08123632 0.003307971 0.044774253 -0.015224027 -0.0154736955 -0.01607092 0.01394804 -0.08834194
0.073383 -0.07457112 -0.09999863 -0.059294067 -0.050335456 0.092122965 0.047778957 -0.06463798
-0.1565869 0.08722456 -0.0017025978 -0.073894836 -0.070398435 -0.054932192 -0.16486298 -0.20626475
0.082452275 0.03637512 -0.13514057 0.058663305 -0.0021727963 -0.07435149 -0.088297464 -0.046963856
-0.100635976 -0.042652186 -0.1899414 -0.010565164 0.10610454 -0.0235885 -0.08619217 -0.01842814
-0.057751454 0.038634937 -0.16432709 -0.15072277 0.038139474 0.09483703 -0.17128731 0.08606643
0.13689093 -0.075485125 0.07574142 -0.14338633 -0.04239234 0.005022762 0.05254027 -0.1296515
-0.088604756 0.12899823 -0.0006932389 -0.030661754 0.067622684 -0.14101404 -0.050872926 -0.015228286
0.11351357 -0.09401087 0.13156252 0.07755051 0.05246714 -0.086551346 0.03982894 0.18742007
-0.075497046 0.109112814 -0.05954103 0.19659643 0.05248731 -0.043626603 -0.08095189 -0.033723712
0.15963253 -0.0112831155 -0.14245814 0.007429471 -0.09741681 0.03912449 -0.09817056 -0.075706065
0.19489743 -0.12864298 0.004026573 0.15021177 0.020139707 0.10521367 -0.045667905 0.07495569
-0.15471275 -0.02222273 0.09376207 0.009670921 0.16304477 -0.09377592 0.08914316 -0.056281384
-0.049007434 -0.13084613 0.16443808 0.05167448 0.051484838 -0.050668642 0.005036187 -0.050657474
-0.14379576 -0.03803299 -0.005319924 -0.034201197 0.08075701 0.051884994 0.07776855 -0.14491552

bias f4 [6]
00000000: 6029 993d 6df9 393d 9e64 0abd b577 21be
00000010: 2e0a 05bd 3fc6 603d
0.07478595 0.045403887 -0.033787362 -0.15768321 -0.03248041 0.054876562
